dataset_adult.pt (torch, 68767 bytes, 15 tensors)

weight f4 [50, 105]
000000 1a 8d b5 bb e5 e3 b2 3c af 6d c3 bd ca 46 ef bc
       -0.0055405023 0.021837184 -0.09542405 -0.02920856
000010 c3 92 7e 3c fe ca 13 bd 3a 1b 1d 3c 78 95 89 39
       0.01553792 -0.03608226 0.009589011 0.0002624204
000020 c6 93 f3 be bc 7c 32 bb f6 b1 e1 bd e2 d9 20 bd
       -0.4757368 -0.0027234992 -0.110202715 -0.03927029
000030 16 ff ac 3c 11 77 da be 2a 3f f3 bd 12 d3 4d 3d
       0.021117728 -0.42668965 -0.11877282 0.05025012
000040 f4 36 6c ba d9 5a 1b 3d 49 de f1 bc a1 01 d9 bb
       -0.0009010874 0.037928436 -0.02952494 -0.0066225086
000050 34 bf 29 bd 99 82 07 bb aa 84 13 3c 0b f0 65 3c
       -0.04144211 -0.0020677208 0.009003798 0.0140342815
000060 9a 37 1d bd 99 41 83 3d 54 69 6a 3d d4 66 a9 3d
       -0.038383104 0.06408996 0.057229355 0.08271566
000070 92 83 ac 3d 53 6e 10 bd 4c 75 fc 3c 87 8d e4 be
       0.084235325 -0.035261463 0.03081765 -0.44639227
000080 25 2e 87 bd f3 ac 9e 3c 93 95 14 b8 e7 97 38 3c
       -0.06600598 0.019369578 -3.542525e-05 0.011266685
000090 87 b3 fb 3d 2e 82 73 bc 1e 10 d0 be 22 98 cc bc
       0.122901015 -0.01486258 -0.40637296 -0.024974886
0000a0 59 26 04 bb 0e bc 79 bd 31 cc d8 3c f9 a7 ff 3b
       -0.0020164459 -0.06097036 0.026464554 0.0078020063
0000b0 25 c2 a2 3c dd 29 cc 3c 44 d1 12 3d 1b ea 3e be
       0.019867966 0.024922306 0.035844103 -0.18643992
0000c0 80 ac a9 bc 6e 60 5f 3c 81 3c ca bb 1e f8 19 be
       -0.020712137 0.0136338305 -0.0061717634 -0.15036055
0000d0 84 0d 8b 3d 1d e5 30 3c 02 4a f7 3b 58 fa 01 3c
       0.06789687 0.010796812 0.007546664 0.007933222
0000e0 74 61 d4 3d ab be f3 3c 05 eb 8a 3c 41 9b da 3d
       0.1037015 0.029754004 0.01695777 0.106741436
0000f0 b5 8b 01 3d f8 15 3c 3d 2a 80 d6 3d 3d 36 fd bd
       0.031627376 0.04591939 0.10473664 -0.12363861
000100 f4 3f 76 3d 0a 86 59 3d 79 19 99 3e f2 2b 40 be
       0.060119584 0.053106345 0.29902247 -0.18766764
000110 ab b5 f7 3c 4b f2 8c 3e 14 8b b7 3e aa f4 67 3e
       0.030237993 0.27528605 0.35848296 0.22651926
000120 3d c0 d7 be 22 11 d1 be 4d be b7 3c 56 cc c9 be
       -0.42138854 -0.40833384 0.02242961 -0.39413708
000130 af 26 91 3e cd b1 e2 be a2 65 cf be 40 58 e5 be
       0.28349826 -0.44276276 -0.40507227 -0.44793892
000140 67 e2 20 be ca d3 c2 be f7 22 f4 be 22 49 10 be
       -0.15711366 -0.38052207 -0.47682926 -0.14090398
000150 83 7f 14 be c8 45 3b 3e 73 0b 56 be 2e 68 ca be
       -0.14501767 0.18288338 -0.20902805 -0.39532608
000160 b0 a0 eb be c5 b4 0d 3e 5a 45 df be 6b 2c dc be
       -0.46021032 0.1383849 -0.436076 -0.43002638
000170 0e d3 d6 3c d2 2f eb bc 27 e3 58 3e a8 d3 0d 3f
       0.026223686 -0.028709326 0.21180402 0.55401087
000180 59 47 05 3c 37 35 c7 be 73 8e 42 be 85 d7 c5 be
       0.008134686 -0.38907787 -0.18999653 -0.3864099
000190 c2 d5 e9 be 8e 8c 97 3d 54 bd e7 bd 49 3b 4a be
       -0.45670897 0.073998556 -0.11315408 -0.19749178
0001a0 d5 d1 e3 be 32 6d cd 3c 6a de 6a bc 65 0e 15 3d
       -0.44496027 0.025076482 -0.014335254 0.03639068
0001b0 70 d7 65 b9 e3 07 53 bc 31 ca c8 38 aa 65 6a bc
       -0.00021919399 -0.012880298 9.574404e-05 -0.014306465
0001c0 2e 93 05 bc 9d 7f ac bd a5 59 ba bc 64 b0 a3 3c
       -0.008152766 -0.08422778 -0.022747824 0.01998157
0001d0 da 74 e3 bc 15 06 17 3c 6b 06 e4 bd f1 37 0c be
       -0.02776568 0.009217759 -0.11134037 -0.13693215
0001e0 a4 a7 8f 3d a9 d7 d6 3c 18 38 a3 be c7 73 17 bf
       0.07014397 0.026225882 -0.31878734 -0.5916104
0001f0 d3 7e ac be fb 3f 43 3d 29 ab 8a 3d 4e 4a ac 3d
       -0.3369051 0.04766844 0.067709275 0.0841261
000200 c5 50 ae 3d 69 77 90 be ff 16 1f 3e 6f 59 06 be
       0.08511499 -0.28216103 0.15536116 -0.13120054
000210 a8 b7 91 bd 4e 83 9a be 56 d3 43 3e 21 3d b6 3d
       -0.07115108 -0.30178303 0.19123587 0.08898378
000220 e7 26 08 be 57 63 16 be 2e d7 20 bc c4 2a a7 bd
       -0.1329609 -0.14686333 -0.009816928 -0.08162454
000230 d6 89 99 3c ca 14 74 3e 2b e5 48 3e f1 7f 70 bd
       0.018742483 0.23836055 0.1961867 -0.058715764
000240 c2 4d c9 3b e5 e8 b6 bc 82 5c 58 3d e3 eb 0c bd
       0.0061433027 -0.02232785 0.052822597 -0.034404647
000250 d4 a6 16 bc 90 33 89 3c f7 08 af 3b b5 07 c4 bc
       -0.009195048 0.01674822 0.005341645 -0.023929456
000260 dc 32 e4 be 5c c2 ba b9 2b 63 19 3d 9b 02 00 bc
       -0.44570053 -0.00035621494 0.03744809 -0.007813121
000270 6b 45 14 bf ce d1 19 3d 54 20 f2 3c b5 e4 94 3c
       -0.57918423 0.0375536 0.02955643 0.018175462
000280 20 03 8c 3e 9f 0f c4 3e c7 08 0d bc fe 45 d4 bc
       0.27346134 0.38293168 -0.00860805 -0.025912281
000290 b1 53 56 bd 18 5d 11 ba 8a 51 cc 3c 8f 9c 8c 3e
       -0.052325908 -0.0005545183 0.024941225 0.27463195
0002a0 d3 e9 37 be 14 01 80 bd 99 3e 7f be d4 fa ea bd
       -0.1796029 -0.06250206 -0.24926223 -0.11473623
0002b0 a8 dc 2e be b4 80 21 be 2d b8 3e be 23 77 c6 bd
       -0.17076361 -0.15771753 -0.18624945 -0.09690692
0002c0 99 ad 69 be 73 89 71 be c8 90 fe bd 5d 96 91 be
       -0.22820129 -0.23587589 -0.124299586 -0.2843503
0002d0 3b 43 04 be 77 be 1a be 40 b4 14 be ee 55 f9 bc
       -0.12916271 -0.15111719 -0.14521885 -0.030436482
0002e0 ea f6 d1 3d 62 44 46 bd 74 7d 66 3e 64 0d 6a be
       0.10252173 -0.04840506 0.22508794 -0.2285667
0002f0 e6 be 15 be 20 6f 96 bd 86 9e 4a be 39 d7 65 be
       -0.14623603 -0.07345414 -0.19787034 -0.22445382
000300 d3 ca 2e be ce ac e2 bd 2d a2 28 bf 23 01 00 be
       -0.17069559 -0.11068116 -0.6587246 -0.12500434
000310 07 f3 cf bd 43 d9 d4 bd 89 27 97 be 0d 71 29 be
       -0.10153776 -0.10393002 -0.2952235 -0.16547032
000320 c6 49 15 be 8a 19 90 3c f2 73 8b bd db 6b 65 be
       -0.14578924 0.017590303 -0.06809224 -0.22404425
000330 14 9b 15 be 98 1b 11 be 1c 35 ca bd fb 9b ab 3c
       -0.14609939 -0.14170682 -0.09873411 0.0209484
000340 14 8c 37 be bd a9 02 be 35 93 8b bc 0d c7 c7 3b
       -0.1792453 -0.12760063 -0.017037967 0.0060967267
000350 2d 3f cc bc 90 aa ed bb 65 ec 89 bc ba 86 a9 bb
       -0.024932468 -0.0072529987 -0.016836355 -0.0051735314
000360 f4 f1 89 bd 36 96 40 3c 8d 58 fa bd 79 7d 22 3d
       -0.06735602 0.011754563 -0.12223921 0.03967044
000370 49 ba d1 bd 4f 5d a8 bd e8 65 1b ba b6 54 a9 3e
       -0.10240609 -0.08220922 -0.0005927966 0.33072442
000380 46 a6 ff bd 20 22 a0 3d ec 0f 55 3d cf c3 cf 3d
       -0.12482886 0.07819009 0.052017137 0.101447694
000390 6f cf 1d be 41 63 32 3c b7 8b 24 3d d0 ad 32 3d
       -0.15411161 0.010887922 0.040172305 0.04362279
0003a0 68 0b f1 3c 99 d4 2b 3c a6 4e c2 bc 3a 5c 19 3d
       0.029424384 0.010487699 -0.023719143 0.03744147
0003b0 85 75 17 be f3 6a 14 3e b9 5f 4e be e2 80 ab 3d
       -0.14790924 0.14493923 -0.20153703 0.08374192
0003c0 33 ec 82 bd 97 6e 80 3e 4f 9b 13 3c 0e a9 7c bb
       -0.06392708 0.25084373 0.009009196 -0.0038552913
0003d0 d2 57 94 bc 87 dd 90 3b c1 68 34 bd 4c d5 48 bb
       -0.018108282 0.0044209394 -0.044045214 -0.0030644713
0003e0 85 7e 0b 3e 6c 1e 9f 3d 89 35 1e bc 6d 45 f7 3b
       0.13622482 0.077694744 -0.009656318 0.007546118
0003f0 31 b4 dd b9 26 a1 76 3d 65 38 b5 3b 73 34 1b 3d
       -0.00042286658 0.060212277 0.0055304044 0.037891816

bias f4 [50]
000000 83 1b ac 3e 8b 79 cf 3b b3 a9 17 3e a0 71 f3 3e
       0.3361474 0.0063316277 0.14810829 0.47547626
000010 f5 71 ae be ad 6c c9 3d 60 0d 97 bd 52 42 ba be
       -0.34071317 0.098351814 -0.07375598 -0.36378723
000020 ec 03 cb bd 0f bc 05 3f ac 54 ac 3d 17 bc 2f 3d
       -0.099128574 0.5224008 0.084145874 0.042903986
000030 ad 44 8b bf 7e ff dc 3b 88 1b 07 bf be ca 38 be
       -1.0880333 0.006744324 -0.52776384 -0.1804609
000040 64 75 ce 3e 3b 22 0b bf 8a f3 a2 3d 80 e5 bf be
       0.40323937 -0.54349107 0.07956608 -0.37479782
000050 b5 5f 14 bf 82 73 57 bd cb 0a 93 3e c0 84 06 bf
       -0.5795854 -0.05260039 0.28719172 -0.5254631
000060 a9 bc 9e be e9 ec ff 3b b4 59 a3 be 6f bd 97 3e
       -0.3100331 0.0078102243 -0.31904376 0.29636714
000070 64 71 f9 be b4 fe 29 bf 56 c3 d6 be 2a 44 97 3e
       -0.48719323 -0.6640427 -0.41945904 0.29544193
000080 c3 66 49 3d 0e d3 7f 3d 15 a3 85 3e 50 a9 58 bf
       0.049170267 0.062457137 0.26100984 -0.8463335
000090 07 47 2e 3f a8 d4 ae 3e e3 e2 5a bd fd ca 9a 3d
       0.6807713 0.3414662 -0.053439032 0.07558248
0000a0 aa fb 49 bc 4a 42 bd be 84 7a da be 80 41 78 3e
       -0.012328068 -0.36964637 -0.42671597 0.24243736
0000b0 85 e5 31 bb 3b 57 79 bd 33 0b 67 be 57 10 09 bf
       -0.002714486 -0.060874205 -0.22562866 -0.5354056
0000c0 7a 21 00 bf 44 76 1f bf
       -0.5005108 -0.62289834

weight f4 [5, 50]
000000 e2 93 ab bd 17 4f c6 bd 14 91 d1 3d fb 11 ae 3b
       -0.08377816 -0.09683054 0.102327496 0.005312202
000010 4d 05 25 be d1 38 66 3d 54 93 6e bd 67 02 39 bd
       -0.16115303 0.056206528 -0.05824597 -0.045168307
000020 d0 5d 1c bd 68 5e 2b bc 5c f3 a3 3d 95 c4 ba bd
       -0.038175404 -0.01045952 0.080054015 -0.09119526
000030 fe 27 6d 3d b0 b1 08 3d ec 4c 32 3d fd e2 da bc
       0.057899468 0.03337258 0.04353039 -0.026719565
000040 c7 6b bc 3b 1f 4e 1a 3e dd 24 0d be a1 91 e4 bc
       0.0057501527 0.15068863 -0.13783593 -0.027901473
000050 d7 ec 1d bd 8c 26 b5 bd d9 ea dd 3d 06 0f b4 3e
       -0.038555946 -0.08845243 0.10835809 0.35167712
000060 2d 29 b3 bd 96 9d bf bb bb 37 0f 3d 20 d4 81 3c
       -0.08748088 -0.005847643 0.034965258 0.01584822
000070 7e f6 12 3e 9b 38 3b 3d 31 ec 18 bd 6c 39 b8 bc
       0.14351842 0.04570828 -0.037334625 -0.022488318
000080 c0 df 11 be 95 8a 83 bb 2c 42 e6 3d 0f ec c2 bd
       -0.1424551 -0.004014323 0.1124309 -0.09517681
000090 6a 88 67 3b 70 7e 86 bc 90 7c b2 3d 44 42 86 bd
       0.0035329112 -0.016417712 0.08715165 -0.06555608
0000a0 6c 86 ee 3d b6 95 be 3d 89 21 ce 3d 96 b4 44 bb
       0.11646733 0.09305899 0.1006499 -0.0030014864
0000b0 a9 5d 57 bd f4 27 3b 3e 3a 6d e9 bc e0 f8 e5 3d
       -0.052579556 0.1827696 -0.028494466 0.1122911
0000c0 52 f1 09 3c a4 c9 0a 3e ca e9 66 3d 16 7a bb bd
       0.008419352 0.13553482 0.056375302 -0.091541454
0000d0 bf 45 01 bc 8b 67 f7 3c 16 41 97 bd e4 74 76 3d
       -0.007890164 0.03020074 -0.07385461 0.06017007
0000e0 46 5e 48 3d 5e 89 86 3c 82 3f ab 3d bc e7 a9 bd
       0.04891803 0.016422924 0.083617225 -0.08296153
0000f0 64 6a 86 bc 2a 35 00 3d 39 b9 90 bc ee 12 2c be
       -0.016408153 0.0313007 -0.017666446 -0.16804096
000100 7e ec 89 bd a4 21 cb bd 31 b7 91 3c ce 5d 4d 3e
       -0.067345604 -0.09918526 0.017787548 0.20055315
000110 29 48 11 bd e8 0a 39 bd c0 20 a7 3d 35 b9 7f 3c
       -0.035469208 -0.045176417 0.081605434 0.015608122
000120 00 98 f5 bc 6c 69 ab 3d 64 bc 6b 3d f3 8d 48 be
       -0.029979706 0.08369717 0.05755271 -0.195854
000130 7a fa 34 3e b1 cd a0 bb e4 86 50 bd 0b 2c 14 3e
       0.17673674 -0.004907333 -0.05090989 0.14469926
000140 88 f2 cc 3b e9 e5 69 3c 20 88 18 3e 4f 4d 0c be
       0.006254498 0.014276006 0.14895678 -0.13701366
000150 de ff 50 3d f0 31 09 3e f2 bb d6 bc 05 99 26 bc
       0.051025264 0.13397956 -0.026212666 -0.010168319
000160 27 05 eb 3d ef 58 22 3c 92 a7 ec bc 57 25 e3 bd
       0.11475592 0.009908899 -0.028888498 -0.110911064
000170 18 61 b4 bd c3 10 2f 3e 0e 3b 11 3e ff e2 f1 bd
       -0.08807582 0.17096238 0.14182684 -0.11810874
000180 52 89 5a 3d 24 d0 19 3e 9a 3d b4 3a d9 e7 8c bd
       0.053353615 0.15020806 0.0013751269 -0.06880159
000190 16 4c 15 3d 8f c9 03 be 57 92 82 bd 29 24 ab 3c
       0.036449514 -0.12869857 -0.06375568 0.020891266
0001a0 52 c8 a5 3c 45 1a fb 3d c8 be 34 3b 89 40 dd 3d
       0.020237122 0.1226087 0.0027579535 0.10803325
0001b0 b7 76 d9 3d 73 3d 50 be ad 68 90 bd 45 94 4b be
       0.10618346 -0.20335941 -0.07051215 -0.19880779
0001c0 db 5f d0 3c 74 ca a3 3d ca 02 55 3e dd 92 57 bd
       0.025436332 0.07997599 0.20801845 -0.052630294
0001d0 0d fc be 3b d7 54 4e be 04 29 2b 3d 31 15 a2 3d
       0.0058283866 -0.20149551 0.041787162 0.07914198
0001e0 0b b7 85 3d ba 71 95 bc 20 52 ed 3c 9b d1 a8 bd
       0.06529053 -0.018242706 0.028969824 -0.08243104
0001f0 f3 d1 9e 3d 8c 07 0f 3d 8e 88 03 3d 6c 1a 93 3d
       0.077548884 0.034919307 0.03211265 0.07182774
000200 ba 89 15 3d ad 6c f1 bb ab f7 c9 3d 4f 57 93 bd
       0.0365083 -0.0073676915 0.09861692 -0.07194387
000210 ec f6 57 3d 28 e8 82 be 78 67 f3 bd f8 01 93 bd
       0.052725717 -0.25567746 -0.118849695 -0.0717811
000220 ab 96 c1 3d 43 e0 4e bc f2 1e 85 bc 26 d4 b7 3d
       0.09452566 -0.01262671 -0.016250107 0.08976011
000230 d3 34 b4 3d 1a 6c cc 3d 52 de a6 bd 63 1f ee bc
       0.08799138 0.09981556 -0.08147873 -0.0290677
000240 01 b1 d9 3c 48 ad 37 3e 95 f8 00 bd 09 c2 b3 bd
       0.02657366 0.17937195 -0.031487066 -0.08777244
000250 2a f8 15 3e d4 2a d9 3d 95 f9 c3 3d b4 ea 2e be
       0.14645448 0.10603872 0.09569088 -0.1708172
000260 e0 cc 59 3e 98 79 f9 bb bc ce a8 3d 16 09 32 bd
       0.2126956 -0.007613372 0.082425565 -0.043465696
000270 90 13 60 bb bf d7 84 bd 0d 95 80 3c 2b b4 39 bd
       -0.0034191348 -0.06486463 0.015696073 -0.045337837
000280 1a 56 8c bd a5 61 7f bd f0 70 8c bd 64 4d ca 3c
       -0.0685236 -0.06234898 -0.068574786 0.024695106
000290 01 0b a6 bd 48 58 aa bd 37 98 36 be c8 9a 54 bd
       -0.081075676 -0.083176196 -0.17831503 -0.051905423
0002a0 ca 1f 12 3e 4a 7a 54 3d 53 ee 69 bd 4c ef 88 bd
       0.14269939 0.051874436 -0.05711205 -0.06686267
0002b0 4b ad 84 3d e2 f3 52 be 7e a2 3a bd 67 e9 b8 3d
       0.064783655 -0.20600846 -0.04556512 0.09028893
0002c0 f0 62 99 3d 7f 78 05 be 64 4c 0f 3e a8 d4 81 3d
       0.07489574 -0.13034247 0.13993984 0.06339389
0002d0 5f 1a a9 3c b5 e6 69 3e c7 01 b1 3d 1f 62 3f 3d
       0.020642458 0.22841914 0.08642917 0.046724435
0002e0 f6 25 47 3d 5e f0 ce bc 84 76 84 3d c8 8d 40 3d
       0.048620187 -0.0252611 0.064679176 0.047010213
0002f0 0e f3 ad bd 54 6c 9e bd 7e fc 7e 3c 94 4a cf 3d
       -0.08493625 -0.07735506 0.0155631285 0.101216465
000300 30 c5 3a 3d 62 33 c1 3d 4f 1e 54 bd 96 4c a9 bd
       0.04559821 0.094336286 -0.051786717 -0.08266561
000310 51 f9 f5 bc 2a ba c1 3d 01 c6 c3 bc 24 3b d5 3d
       -0.03002611 0.09459336 -0.023898127 0.10411671
000320 44 79 d7 bd 9d 4d 1d be ae ab 38 bd cd 97 96 3c
       -0.105211765 -0.15361638 -0.0450856 0.018382931
000330 2f 24 d3 3d 09 49 9b 3d 61 d0 9b bd 97 2e 71 bd
       0.10309636 0.0758229 -0.076081045 -0.058882322
000340 4a e4 4e 3c 23 73 bc 3d 4c 6b a7 3d 65 92 aa bd
       0.012627671 0.09201648 0.08174762 -0.08328704
000350 56 47 2f 3d 28 c4 57 3d eb 4e 8a 3c a6 2c 30 be
       0.04279264 0.052677304 0.016883334 -0.17204532
000360 8c a4 2e bd bf 86 6b 3e 54 6e 64 bd 5f bc 06 be
       -0.042637393 0.2300062 -0.05576928 -0.13157795
000370 a8 9b c3 3c 5d 7d fc bc e3 e0 b7 3c 2e 7e 55 be
       0.023877934 -0.030821497 0.022446102 -0.20848915
000380 b6 6f 4e bd ae a9 1c be 2e 5e 50 bd 80 bb c6 3d
       -0.050399505 -0.15299103 -0.050871067 0.097037315
000390 82 7e d6 3d ca 23 11 3e 2b 99 d8 3d 97 32 90 bd
       0.10473348 0.14173809 0.105760895 -0.07040899
0003a0 4a 66 1e 3c 78 f4 87 3e cd dd cc bb b3 1e 0b bc
       0.009667942 0.26553702 -0.0062520267 -0.008491206
0003b0 45 f6 ca bc 62 45 e9 3d 76 4e e0 bd 05 56 3a 3d
       -0.024775634 0.11390187 -0.10952465 0.04549219
0003c0 57 47 67 bd 34 69 87 3d d2 ce 6c bd ef 65 0e 3d
       -0.05646452 0.06611863 -0.057814427 0.03476518
0003d0 a2 0f 10 3d b1 ad 24 3c 23 9c 36 bc f1 a0 74 be
       0.03517116 0.010051177 -0.011145624 -0.2388952
0003e0 0a 5e 01 bd 2b d4 95 3d
       -0.031583823 0.073158585

bias f4 [5]
000000 67 13 7e bd b3 68 8b bd f6 08 3e 3d 59 05 60 bd
       -0.062030222 -0.06807079 0.046395265 -0.0546926
000010 f4 0b 42 3d
       0.04737468

weight f4 [5, 50]
000000 0f 3b 2c be 81 1d 4d be 9e 7f e7 bd 2e 1e ab be
       -0.16819404 -0.20030786 -0.11303638 -0.33421463
000010 38 a9 94 bd 59 7f e3 bd 87 9b 26 be fe 94 b6 bd
       -0.072588384 -0.11108274 -0.16270266 -0.08915137
000020 5c 0a 3c bd 7c c2 b2 38 87 e0 44 bc f2 e4 9d bd
       -0.045908317 8.523927e-05 -0.012016422 -0.077096835
000030 86 ea 42 bc cc 82 ca bd 67 76 db bd dd d9 37 bd
       -0.011896735 -0.09888229 -0.10715943 -0.044885505
000040 18 15 37 be c3 99 75 3d 0b 02 49 3c 9d a2 3b 3c
       -0.1787914 0.05996109 0.0122685535 0.011452344
000050 f9 15 89 3b 7d f1 bc bd 3d a5 1b bc 22 16 80 bd
       0.0041835275 -0.09225748 -0.009499845 -0.062542215
000060 99 65 59 3d ec f3 12 bd 20 bb 36 bd 4e 8c 56 be
       0.053075407 -0.035877153 -0.04461205 -0.2095196
000070 86 9a 9f bd 93 0f aa bc 96 e6 05 bd 93 8e 47 be
       -0.07793145 -0.02075938 -0.032690607 -0.19487981
000080 f5 72 ab 3c a6 55 08 bd a2 53 0b be a4 9a 31 bd
       0.02092884 -0.033284806 -0.13606122 -0.043360367
000090 e1 c8 b5 be cb ff 6c be 36 57 a5 ba 89 b0 c8 bd
       -0.3550482 -0.23144452 -0.0012614492 -0.097992964
0000a0 db 7e a6 bd 1b 3e e7 bd 90 3e 03 3d 13 aa 2e be
       -0.081296645 -0.112911426 0.032042086 -0.17057066
0000b0 4c a9 2e be 66 44 60 3d 69 2e dd bd e2 67 15 3d
       -0.17056769 0.05475273 -0.10799868 0.036476023
0000c0 b5 20 14 be 12 3c 40 bd 27 5d 38 be d5 4d e2 bd
       -0.14465602 -0.046932288 -0.18004285 -0.110500015
0000d0 b4 b0 cb bd 4d 5d ce be 8d 97 c9 3c e9 a9 dd bd
       -0.09945813 -0.40305558 0.024608398 -0.108234234
0000e0 e7 13 3c be a0 6f d3 bd a6 fe 2d bd 43 00 90 bd
       -0.18366967 -0.10324025 -0.04247918 -0.070313
0000f0 7b 6e 83 bd d9 6e 6c bd 8f ef c0 bb 73 46 d0 bd
       -0.06417557 -0.0577229 -0.0058879326 -0.10169687
000100 57 b4 2c bd 5f 82 49 bd c1 96 68 be a0 78 8d 3d
       -0.042164173 -0.049196597 -0.22713758 0.06907773
000110 c3 b2 23 bc 63 80 46 3d 0b 9d 69 3d a9 2a 3d be
       -0.009991351 0.048462283 0.057034533 -0.18473305
000120 d3 1d ae bd e0 93 b7 bd 2f f2 ae 3c e3 60 85 bd
       -0.08501782 -0.08963752 0.021355717 -0.0651262
000130 d8 cb ef 3d b3 14 36 be fe 69 8c bd db fd 90 bd
       0.11708802 -0.17781334 -0.06856154 -0.07079669
000140 fa 01 b2 bd 4a e8 03 be b8 d2 fc bc 3a 71 ab 3c
       -0.08691783 -0.1288158 -0.030862197 0.020928014
000150 dd b5 43 be 21 d9 52 3d d8 4e a9 be 03 e2 50 be
       -0.19112344 0.0514766 -0.33067966 -0.20398717
000160 53 b8 52 37 f5 a3 10 bd 7d 74 d2 bd 74 f0 d3 bd
       1.2559892e-05 -0.03531261 -0.102761246 -0.10348597
000170 0c 1b 28 3d 77 d8 0a be 86 f7 ac bd 63 33 3c bc
       0.04104142 -0.13559137 -0.08445649 -0.011486861
000180 46 45 72 bd ce e0 27 3d cc 9b 26 be f1 fd ac 3c
       -0.059148096 0.040985875 -0.1627037 0.021117182
000190 26 d9 3d be f7 30 0d be 7d 3f 9f bd f3 13 bb be
       -0.18539867 -0.1378821 -0.07775781 -0.36538658
0001a0 fe 3e 7b bd 06 2f 1a be 69 3b 48 be 86 a0 f3 bd
       -0.06133937 -0.15057 -0.19553913 -0.11895852
0001b0 7f 29 32 bd 02 03 c2 3c 4e db b5 bb 94 33 b0 bc
       -0.043496605 0.023683075 -0.005549825 -0.02150897
0001c0 25 d4 27 bd 89 61 2a be 26 fd 60 bd 98 5a 92 bd
       -0.0409738 -0.16638769 -0.05492892 -0.07146186
0001d0 64 f7 e4 bd 30 d3 30 3d ac d5 e6 3b 26 7c 6a 3d
       -0.111799985 0.043170154 0.0070445146 0.057247303
0001e0 61 b4 c4 3c 18 a7 1d be 8c 80 9d 3b 73 d5 cd bd
       0.024011793 -0.15395772 0.0048065837 -0.10050478
0001f0 4e e4 82 3d 26 53 80 bd 21 1b 09 3b b4 f7 65 be
       0.06391202 -0.06265859 0.002092071 -0.22457772
000200 5a a2 a4 bd 4a c2 ff bc ce 3b aa 3c cf 60 02 be
       -0.080387786 -0.031220574 0.02078047 -0.12732242
000210 a8 39 f8 bc d1 e0 c6 3c 26 ca 69 bd 07 7f 28 bd
       -0.03030093 0.024277123 -0.05707755 -0.041136768
000220 d4 a2 bb be fb e1 26 be 75 25 96 bc 95 3c dc bd
       -0.36647666 -0.16297142 -0.018328408 -0.107537426
000230 68 06 05 be e5 b7 b9 bd fd 44 e9 3c e7 44 27 be
       -0.12990725 -0.09068278 0.028475279 -0.16334878
000240 40 08 57 be 03 58 20 3d 76 ae 7f bb c1 8b b8 3c
       -0.20999241 0.039146435 -0.00390139 0.022527577
000250 46 f6 0d be 28 70 d1 bc 3c 0e 4e be e0 19 06 be
       -0.13863477 -0.025566176 -0.20122617 -0.13095808
000260 54 c3 2a bd 3c 00 c2 be 77 6d 74 bd 49 a0 f6 bd
       -0.041690186 -0.37890804 -0.059674706 -0.12042291
000270 2f 57 47 be 12 4c bf bd ed dc d2 bc c3 0d c1 bc
       -0.19466852 -0.09340681 -0.025740111 -0.023566132
000280 3b e3 1f bd 96 2f 79 bd 41 ca 77 3d 22 b7 43 be
       -0.039035063 -0.060836397 0.06049562 -0.19112828
000290 74 c5 c9 bd 13 3b 6f bc a3 29 28 be 77 9d dc bb
       -0.09852114 -0.014601487 -0.16422133 -0.0067326385
0002a0 66 49 b0 3c 08 30 43 3c c6 53 1b bd a5 99 8c be
       0.021519374 0.011913307 -0.03792169 -0.2746097
0002b0 59 c9 0d bb 23 e2 e4 bd 55 37 a1 3d f8 4a 8d bd
       -0.0021634905 -0.11175945 0.07871882 -0.06899065
0002c0 04 b1 54 3d 66 98 5e be 36 38 8d bd 6a 50 56 bd
       0.051926628 -0.21737823 -0.06895487 -0.052322783
0002d0 db c7 b3 bc b6 ab e5 bd cf e0 1d bc 7f 26 97 3d
       -0.021945884 -0.11214392 -0.009636118 0.073803894
0002e0 51 68 ab bd 1e 8a fd bc 01 c5 bf be 2b 3c 3f be
       -0.08369506 -0.030949648 -0.3745499 -0.18675296
0002f0 5f d4 95 3b 79 ad d6 bd f2 fb 18 bd 6f 2b e2 bd
       0.0045724357 -0.10482306 -0.03734965 -0.110434406
000300 fb d3 42 bc 1d 9e f8 bd 12 82 17 be 76 80 b5 3c
       -0.01189136 -0.12139533 -0.14795712 0.022155982
000310 94 f1 e8 bd 6a d5 18 3c 2d f3 6d be ed 97 85 bd
       -0.11374202 0.009328226 -0.23237295 -0.06523118
000320 8e f0 47 be 80 fc f1 bd 13 3f bd bd 98 0d bd be
       -0.19525358 -0.11815739 -0.09240546 -0.36924434
000330 d7 bd f2 bd ab 7b 0f be 8c 61 20 be 6b d9 26 be
       -0.11852615 -0.1401202 -0.15662211 -0.16293876
000340 4c 5f 17 bd a5 bf a6 3b a7 17 42 bd 05 6f 61 bd
       -0.036956117 0.005088764 -0.047385838 -0.055037517
000350 17 b6 b9 3c d2 2a f8 bd 06 5d a2 bd d5 8c cf bc
       0.022669835 -0.12117542 -0.07927899 -0.025335709
000360 66 f2 3a be 3e d5 47 3d dd 58 08 3d 32 2b 35 3d
       -0.1825653 0.048787348 0.03328787 0.044230647
000370 27 99 89 3c 1b a7 42 be f9 7a 60 3c c3 33 e9 bd
       0.016796662 -0.19009058 0.013701194 -0.11386826
000380 bd 5d e3 3c e9 26 2b bd bf e9 87 3c d1 32 4a be
       0.027754659 -0.041785154 0.016590951 -0.19745947
000390 3d 93 00 bd 00 be 0e bd d2 f3 91 bc e6 de 3e be
       -0.031390417 -0.034849167 -0.017816458 -0.18639717
0003a0 64 08 d6 bc 4d 88 9a 3a cd ed 9c bd df 3c be bc
       -0.026127048 0.0011789888 -0.076625444 -0.023222385
0003b0 4f ff aa be cc 38 49 be c3 dd 3c bd 44 ec 56 bd
       -0.3339791 -0.19650573 -0.046109926 -0.052471414
0003c0 05 9a cf bd 77 6b d5 bd 46 b4 01 3d 17 fa 26 be
       -0.10136799 -0.10420888 0.031666063 -0.16306339
0003d0 61 32 b8 bd cd 12 8b 3c 04 9c 3b be f1 a2 94 3d
       -0.08993984 0.016976738 -0.18321234 0.07257641
0003e0 16 11 1c be 1c f0 b7 b9
       -0.15240893 -0.00035083375

bias f4 [5]
000000 e4 8d 92 bf 54 13 b1 bf 4d 4c 98 bf ce 7e 81 bf
       -1.1449552 -1.3834023 -1.1898285 -1.0116823
000010 32 9f 99 bf
       -1.2001708

weight f4 [50, 5]
000000 4d 8a c0 3d 8d d1 ab 3f 21 2e 77 3e 14 75 72 3f
       0.09401379 1.3423325 0.2413869 0.947099
000010 d4 e4 62 3f 6a f7 d3 be 96 6c b9 3e a4 d0 52 bf
       0.88630414 -0.413997 0.36215657 -0.8234961
000020 a7 bb 53 bf ca 86 83 3f 5b 5a a0 be 6a f7 3d be
       -0.8270821 1.0275509 -0.31318936 -0.18551412
000030 9b 51 df 3e 6f 9e bf bf ee a7 8d 3f a8 30 17 3e
       0.43616948 -1.4970225 1.1066873 0.14764655
000040 39 b2 20 3e 27 d2 f4 3f a0 07 25 3f 55 68 8e be
       0.15692987 1.9126633 0.6446476 -0.27813974
000050 83 f0 2a bf 2d c7 59 bf 2a df 9a bd a7 b2 53 bf
       -0.6677324 -0.85069543 -0.075620964 -0.82694477
000060 58 83 83 3f 3a c1 64 3f 2c 69 70 bf cc 9d 56 3f
       1.0274458 0.8935734 -0.9391048 0.8383453
000070 ec 84 a8 bf 59 cf 41 3f 34 c3 92 3f 66 1c d1 3d
       -1.3165565 0.7570701 1.1465821 0.10210495
000080 5e a2 aa be 7d 7b d2 be 42 de 9d bf 2e f2 92 3f
       -0.33327 -0.4110984 -1.2333453 1.1480157
000090 88 ac be be d8 b3 9d bf 46 0a 44 3f 02 ca 52 3f
       -0.37241006 -1.2320509 0.76578176 0.8233949
0000a0 a4 52 c6 bf ff cc 26 bf be 2d 8d 3d 22 5e 03 3f
       -1.549397 -0.6515655 0.0689349 0.5131551
0000b0 14 01 22 3f be 34 b4 be 4e 78 00 c0 9e b7 32 3e
       0.63282895 -0.3519649 -2.0073428 0.17452857
0000c0 89 be d2 3e 43 7c 4c be c4 19 78 bf 4a 0d 65 bf
       0.41160992 -0.19969277 -0.96914315 -0.894734
0000d0 27 0d 76 3f 5a cb ff 3d 6b 19 40 3f 5d b9 aa 3f
       0.9611382 0.12489958 0.75038785 1.3337818
0000e0 b3 e3 a9 3f 3f 4c 8b be 38 f0 55 3d 98 9a 7d bd
       1.3272613 -0.2720661 0.052231044 -0.06191501
0000f0 ee a9 00 bf 84 18 1f 3f ce 36 be 3f d5 77 48 bd
       -0.5025929 0.6214678 1.4860475 -0.048942406
000100 f2 27 88 bf 7a 70 3c bd b9 93 95 3f d0 3c fd be
       -1.063719 -0.046005704 1.1685706 -0.4946046
000110 88 d9 83 bf 15 b6 36 3f 17 af 4c 3f 8c 7a 2b bd
       -1.030076 0.71371585 0.79954666 -0.041864917
000120 2f dc bf bf 4a 3b 28 3f a9 e9 4f bf ed 5a 01 bf
       -1.498907 0.6571547 -0.8121591 -0.50529367
000130 60 3d 8a be ca 2d b6 bf a5 67 97 3e 87 da 2a be
       -0.2699995 -1.4232724 0.29571262 -0.16684924
000140 42 ab cd 3e 8c aa b5 bc d1 7a cf be f7 d2 06 3e
       0.40169722 -0.02217605 -0.4052339 0.13166414
000150 f9 de ca 3f 10 91 4c be 17 65 22 3f 6c bd 83 3f
       1.5849296 -0.19977212 0.634355 1.0292182
000160 a2 06 58 3f 24 b4 8f 3f 15 bb 99 3e 35 13 5f bb
       0.8438512 1.122685 0.30025545 -0.0034038548
000170 ea 29 9e 3e b4 98 b8 3f fe 88 08 3f 91 e1 8c 3f
       0.30891353 1.4421601 0.53334033 1.1006337
000180 72 80 3a 3b 3d 2a 1a 3e a9 08 af 3f 87 08 3c bf
       0.0028457907 0.15055175 1.3674518 -0.7345051
000190 25 e8 c3 be 3b f1 aa bf 58 bf 6d bf ee 93 0c bf
       -0.3826305 -1.3354868 -0.9287009 -0.5491322
0001a0 19 ea 6e bf bd 89 76 be d4 d4 71 3f 10 66 51 3f
       -0.93325955 -0.2407598 0.94465375 0.8179636
0001b0 b8 d6 51 bf 8c 70 77 bf d0 0a 4a bf 4d 19 bd 3f
       -0.8196826 -0.9665611 -0.7892275 1.4773346
0001c0 7f 8e 3f 3f 62 23 ce ba 86 04 08 3f ce d7 f3 be
       0.74826807 -0.0015727098 0.531319 -0.47625583
0001d0 3e 5b d9 be 8a 31 c9 3f f4 dc 8e bf f0 e4 e2 be
       -0.42452425 1.5718243 -1.116118 -0.4431529
0001e0 da bb 98 be 44 a2 98 bf 05 a2 06 bf 42 e1 ed be
       -0.2983082 -1.192452 -0.5259097 -0.4646092
0001f0 d9 c2 9e bf 40 99 95 bf 6e f5 72 be 05 16 56 3f
       -1.2403213 -1.1687393 -0.23726436 0.8362735
000200 47 e5 0f bf c8 8d 71 bf 28 0f 2e 3d 5a 3b 04 3f
       -0.56209224 -0.94356966 0.042494923 0.51653063
000210 33 fc 95 3f c3 c5 2f 3f a2 c2 cd 3c b0 3d 55 bf
       1.171759 0.68661135 0.025117222 -0.8329725
000220 92 99 6b bf 86 3f 8f 3f 9f f4 fb bd 72 a1 91 bf
       -0.92031205 1.1191261 -0.12302517 -1.1377394
000230 4e cc 08 bf 42 cc 4d 3f 55 a3 a6 be ea 5c 7f 3f
       -0.53436744 0.803898 -0.32546487 0.9975115
000240 84 e0 75 bf a9 a1 9c bf 16 25 2b bf 21 ac d2 be
       -0.9604571 -1.2236835 -0.66853464 -0.4114695
000250 da c1 48 bf 55 2d 1c bf 17 35 a0 3e 5d 06 d0 bf
       -0.78420794 -0.6100667 0.31290504 -1.6251942
000260 09 c6 4b bf 41 85 cb 3d a4 bb 5e 3f d2 c5 55 3f
       -0.7959905 0.099375255 0.87005067 0.83504975
000270 c7 f9 35 be 97 71 9c 3f 69 86 33 bf 03 f4 62 bf
       -0.17771064 1.2222165 -0.7012697 -0.8865358
000280 79 fc b7 be 61 2d 71 be d8 52 82 bb 28 b8 dd 3f
       -0.3593481 -0.23552467 -0.003977161 1.7321825
000290 e4 bb d4 be 97 d9 db bf 8a 0d 3d 3f bd ac 8c 3e
       -0.415496 -1.7175778 0.73848784 0.2747554
0002a0 92 e3 9d be 62 dc 39 3f c3 a6 35 3f a4 2a b4 3f
       -0.30837685 0.726019 0.70957583 1.4075513
0002b0 00 75 6c 3f 8c a5 84 be 3c 24 42 3e 28 73 2b bf
       0.9236603 -0.25907552 0.18959135 -0.6697259
0002c0 5e 62 a0 bf a7 a1 b4 ba a7 8b ba 3f b4 94 9f be
       -1.2530019 -0.0013781086 1.4573869 -0.3116814
0002d0 d5 fd 80 3e 1e 46 43 bf 9c ae a3 bf cb 9b 92 3f
       0.25193658 -0.76278865 -1.2787662 1.1453794
0002e0 b0 aa 18 3e 12 40 8e bf 15 ee 9b bf ff ec 35 3e
       0.14908862 -1.1113303 -1.2182032 0.17766188
0002f0 1b 1a 1e 3f 61 1f 83 3f 91 11 88 bf 5c f8 8e 3f
       0.61758584 1.0243951 -1.0630361 1.1169543
000300 1c 24 6a bc 00 90 b8 bd 46 ef 8a bf d8 ab 8d 3f
       -0.014290836 -0.09011841 -1.085427 1.1068068
000310 0f 0c 92 bf 9f ac b7 be ce 75 dd be 9d 00 a8 bd
       -1.140993 -0.35873887 -0.4325394 -0.08203242
000320 95 55 92 3e 82 86 8d 3f 66 87 c4 be 3b 12 85 3f
       0.2858092 1.1056674 -0.3838455 1.0396188
000330 34 fa 85 bf e1 6a 7e bf cb b1 43 3e 7b 6b ce bf
       -1.0466981 -0.99381834 0.19110791 -1.612655
000340 1f 8f 99 bd 95 f0 72 be 94 f7 95 3f 97 fb 84 be
       -0.07498001 -0.23724587 1.171618 -0.25973198
000350 11 ea df 3e 90 58 5f bf 08 45 0d 3f 6f 04 da bd
       0.43733266 -0.8724451 0.5518346 -0.10645377
000360 d2 5b 80 bf 63 8a e7 bf d4 05 0c bd ba 64 b3 3e
       -1.0028021 -1.8089107 -0.034185246 0.35037786
000370 70 6e de bd 3a 62 b8 3f 6f b9 98 3f 99 53 72 3f
       -0.10860908 1.4404976 1.193159 0.9465881
000380 ed 01 59 bf aa 60 22 bf bf 3e a8 3f 33 ed 83 bf
       -0.84768564 -0.6342875 1.3144149 -1.0306762
000390 09 38 26 bf f0 cb 8c be ab 32 be bf 89 77 b3 bd
       -0.6492925 -0.27499342 -1.4859213 -0.08763034
0003a0 40 d6 57 3f 0f 87 7e 3f a1 7e b6 bd 17 15 70 3f
       0.84311295 0.99424833 -0.08910871 0.9378218
0003b0 ee a3 12 be 4b b6 96 bf 60 ec 8b bf d5 83 4f 3f
       -0.14320347 -1.1774381 -1.0931511 0.81060535
0003c0 0a da 91 3f 35 7b 55 bf 13 f6 bf be 2e bf c1 3f
       1.1394665 -0.83391124 -0.37492427 1.5136468
0003d0 66 6a 3e be 56 3f c0 3e 50 ca 89 3d 8b b3 67 3f
       -0.18595275 0.3754832 0.06728041 0.90508336
0003e0 0f 2b 8e be f5 e7 bb bf
       -0.27767226 -1.4680163

bias f4 [50]
000000 32 37 3a 3f f1 c9 fc 3f 39 e0 b8 bf a5 c6 7e bf
       0.7274047 1.9749128 -1.4443427 -0.9952186
000010 60 03 e1 3f 6e f0 1a c0 c5 b2 56 3f 8d b6 97 3f
       1.7579155 -2.4209247 0.8386653 1.1852585
000020 b8 21 bd 3f dd d0 5c 3f f3 5d a3 3e 26 09 b0 bf
       1.4775915 0.862562 0.31907615 -1.3752792
000030 c2 a9 86 be 45 b7 85 bf b6 1d f4 3f e5 5b 19 40
       -0.2630139 -1.0446554 1.9071567 2.3962338
000040 46 56 fc 3f 97 1e 23 3f fe 9e df bf ca 25 ce 3f
       1.9713829 0.6371855 -1.7470396 1.6105282
000050 af 35 46 bf 94 a5 d7 bf 26 7f 33 3f 00 2f b0 bf
       -0.77425665 -1.6847405 0.7011589 -1.3764343
000060 88 e9 ba 3f 74 ba ea 3f e5 26 01 40 81 5c d5 bf
       1.4602518 1.8338151 2.017999 -1.6668855
000070 72 15 d3 be 07 5b c2 3f 92 15 c4 3e f1 c9 26 bf
       -0.412273 1.5184029 0.38297707 -0.6515189
000080 5e da fb 3f d9 95 23 be 77 80 52 bf 2e a2 cd 3f
       1.9676015 -0.15975131 -0.8222727 1.6065118
000090 38 26 bf 3d 32 68 13 be 0a d9 ec 3f f6 d3 a9 3f
       0.093334615 -0.14395216 1.8503735 1.326781
0000a0 d0 cd 03 40 3b d2 d8 3e 3c 61 c1 3f d3 78 5e 3f
       2.0594368 0.42347893 1.5107799 0.86903113
0000b0 c6 be f6 bf b1 48 b6 3f 40 c7 7f bf d7 1f 42 3f
       -1.927697 1.4240934 -0.99913406 0.75829834
0000c0 1a fd 91 3f 68 cb e4 3f
       1.1405365 1.7874575

weight f4 [105, 50]
000000 98 ab 83 bd 92 51 c3 3e 9c 2d e8 3c 9e fc 25 3e
       -0.06429213 0.3814817 0.02834206 0.16209647
000010 a5 c7 b5 3d ef 21 d6 3c 74 f4 9e 3d 7b f5 1d 3e
       0.0887597 0.026139228 0.077614695 0.15425675
000020 46 e1 97 3a 44 7f 35 be a4 1c 86 be 34 7d 98 3e
       0.0011587522 -0.17724329 -0.26193726 0.29783022
000030 47 9b b5 3b 80 c0 01 bf e1 c4 27 3e 45 a9 52 bd
       0.005542192 -0.50684357 0.16383697 -0.05143096
000040 c7 d4 5f bd c4 1c 34 3d 45 8e 5c 3e e8 07 92 bb
       -0.05464628 0.043972746 0.21538647 -0.004456509
000050 4a e6 97 3e 9f e2 30 be 28 c8 5e bd 4e 48 76 3c
       0.29667884 -0.17273949 -0.054390103 0.015031887
000060 ba 02 19 3d 39 2c 82 3e ef ef 6f 3e fc 7c e6 3c
       0.037356116 0.25424364 0.23431371 0.02813577
000070 ca 64 9c 3c b5 ff c6 be f3 44 04 3e 21 64 51 3d
       0.019091029 -0.38866964 0.12916927 0.05112088
000080 07 6c c7 bd 90 d4 f9 ba 64 c6 be bd a7 c3 07 3e
       -0.097374015 -0.0019060541 -0.09315184 0.13258229
000090 59 b6 2b bd 1f 85 3b 3e bb 24 1e 3e 32 c4 ab bd
       -0.041921947 0.183125 0.15443699 -0.08387031
0000a0 6a 44 83 be b0 ee 8f 3d a5 aa c8 bd d8 16 c0 be
       -0.25638133 0.07027948 -0.09798173 -0.37517428
0000b0 5d 62 0f be 1d 8f 96 3e fb bf b4 bb 3a 4d 21 be
       -0.14002366 0.29406062 -0.00551605 -0.15752116
0000c0 3a fb 24 be 35 c4 2c be 35 61 0c 3d 20 1e 06 bd
       -0.1611146 -0.16871722 0.03427239 -0.032743573
0000d0 be 20 bc bc 64 51 c6 bd f6 1b 2d bd 8f 6e 39 3d
       -0.022964831 -0.09683493 -0.042262994 0.045271453
0000e0 05 0a 20 bd c0 4e 77 bd fb 9c 90 bd 65 c3 ef bd
       -0.039072055 -0.060377836 -0.07061192 -0.117071904
0000f0 3b 37 11 3e e9 b9 38 be 24 3d c1 bc e3 8a b4 3b
       0.14181225 -0.18039669 -0.023588724 0.0055097206
000100 e0 c0 16 bd e5 14 29 be 6d 50 55 3d d1 bc 81 bd
       -0.036805034 -0.16511877 0.052078653 -0.06334842
000110 3d 78 b2 3d 66 3d d3 3c 05 7f ec bd 9b 33 2a bd
       0.0871434 0.025786113 -0.115476646 -0.04155312
000120 1e d4 b7 3d 9c 47 3c 3d 92 f3 08 3e 4c 03 71 bd
       0.08976005 0.04596673 0.13374165 -0.058841035
000130 4f 0a 00 bd a5 d5 18 3d 0a 51 44 bd 4b 6b c3 bc
       -0.03125983 0.037313122 -0.047928847 -0.023854872
000140 e8 ef ad bd 99 9e 8a bd d1 36 c5 bd ab 2f f1 bd
       -0.08493024 -0.06768531 -0.09629596 -0.1177667
000150 e8 59 c7 3d a1 bf 7d 3d 77 44 2b bb b7 3c 4e 3d
       0.09733945 0.06195033 -0.0026133338 0.05035087
000160 f9 c2 9d bd 10 c0 32 3d 92 1e a9 3d f9 c5 0c 3e
       -0.07703204 0.043640196 0.08257784 0.13747396
000170 41 ea 9b bd 6d 76 4e 3d 75 57 73 3d 53 0a 1c 3d
       -0.0761304 0.05040591 0.059409577 0.038095783
000180 b6 2e ae 3d 4f 87 a8 3d e0 b6 e8 3d 32 82 bd 3d
       0.08505003 0.08228933 0.11363006 0.092533484
000190 5b 33 1c bd cd bd e4 3e 59 f0 0f be d5 a7 e7 3d
       -0.038134914 0.44676057 -0.14056529 0.11311308
0001a0 62 cd 59 3c b8 66 c1 3d 87 37 0b bd 6a b0 43 bd
       0.013293596 0.0944342 -0.033988502 -0.047775663
0001b0 56 80 66 bd dd 4a a0 3b 97 14 f2 3d 24 5d 55 3c
       -0.056274734 0.004891737 0.118203335 0.013022695
0001c0 78 af 00 be 27 a6 28 be 81 10 bc bd 19 1d db be
       -0.12566936 -0.16469632 -0.09182835 -0.42795637
0001d0 de 76 92 3d d8 00 25 bd e3 86 e4 be 83 3d 0c 3e
       0.07151578 -0.040284008 -0.4463416 0.1369534
0001e0 e1 04 e1 3d ac f0 ef 3e 10 6d 35 3c 6e db eb bd
       0.10987259 0.46863306 0.011073366 -0.11516462
0001f0 ef e5 2c 3e 01 22 88 3c be b8 c4 bd cc 04 30 bd
       0.16884588 0.016617777 -0.09605549 -0.042973325
000200 dd a1 04 3e 50 a0 7c 3e e1 8d 02 be eb 23 8c be
       0.12952371 0.2467053 -0.12749435 -0.27371153
000210 0f ec 36 bc 0e 01 53 bd 07 7a 20 be 38 e5 2c be
       -0.011164679 -0.051514678 -0.1567155 -0.16884315
000220 97 0e ab 3e d1 a1 72 3d 26 4c 0e be c8 bd a8 be
       0.3340957 0.05923635 -0.13896236 -0.32957292
000230 d6 77 5b be 57 3f 54 be 5c ee df 3e 0a 46 f8 3d
       -0.21432433 -0.20727287 0.4373654 0.12122734
000240 bf 1a 81 3e 8b 87 b7 3d 8d 00 4f bd ba f6 23 bd
       0.25215718 0.089614 -0.050537635 -0.04003022
000250 26 1b 5c 3e 78 ff 34 3d 9e 5d fa bc c7 54 33 3e
       0.21494731 0.044188946 -0.030562218 0.17512809
000260 80 19 fd b6 73 d9 af bd 83 57 89 bd 35 fd de bc
       -7.542956e-06 -0.08586397 -0.06706145 -0.027220348
000270 77 04 2b 3d 6c 56 5f bc 50 26 8a 3d 6c 17 04 3d
       0.041752305 -0.013631444 0.06745589 0.0322489
000280 4d 4c a7 3d cf b0 36 bd a8 a4 ac bd cd d1 f3 bd
       0.0816885 -0.04460221 -0.08429843 -0.11905251
000290 37 ae 3f bc eb 27 01 be 26 de 09 3d fc 85 eb bc
       -0.011699251 -0.12612884 0.033659123 -0.028750412
0002a0 75 25 d1 3c 98 1a e6 3c ae 35 d1 3d 7c 56 72 bc
       0.025530556 0.028088853 0.10215317 -0.014791127
0002b0 c9 66 58 3c 1e 5f 1b 3d d6 db a3 bd 1d 69 ad 3c
       0.0132081 0.037932508 -0.08000915 0.021168286
0002c0 be 02 86 3d 47 6d 4c 3d d0 0f 8e 3c 40 cd 0e bd
       0.06543492 0.049908902 0.017341524 -0.03486371
0002d0 74 c8 07 bd 73 7c d4 bc 09 86 70 bd 8b d0 9b 3b
       -0.03315015 -0.025938248 -0.058721576 0.004755085
0002e0 3f 92 25 3c 12 3c 0e bc d0 a0 31 3e 00 ee e8 bd
       0.010105669 -0.008681314 0.17346501 -0.1137352
0002f0 93 9b 8e bc 08 02 90 bc f5 c8 4e bc 28 64 67 3d
       -0.017408168 -0.017579094 -0.012621154 0.056492
000300 0c 85 7f 3d f5 a9 ab bd 9f 8e 96 3d 4c 95 e9 ba
       0.062382743 -0.08382026 0.073514216 -0.0017820983
000310 0f 36 eb bb a9 1f c2 3b 00 be ad bd 8f a3 02 3d
       -0.007178075 0.0059241843 -0.08483505 0.031894263
000320 58 5c 70 bd b9 df bd 3d 15 73 5e 3d 8b 18 01 bd
       -0.058681816 0.09271187 0.05430897 -0.031517547
000330 4f eb 87 3c 2c 76 46 bd 89 ee b8 3c 0d 6f 90 3d
       0.016591696 -0.04845254 0.02257468 0.07052431
000340 eb da b7 3c f7 31 cd 3c 71 e4 87 bb f4 cb 27 3c
       0.022443255 0.02504824 -0.0041471054 0.010241497
000350 b7 d8 0e bd 0d 68 3a bd 20 57 53 bc c8 0a f6 bc
       -0.034874644 -0.045509387 -0.01289919 -0.030034438
000360 f0 25 85 bb e3 95 03 3b 56 a8 bc 3b ea a1 5c 3d
       -0.0040633604 0.0020078353 0.005757372 0.05386535
000370 26 1a a3 3d 10 bc 6c bc d4 68 08 3c 85 59 25 3c
       0.07963972 -0.0144491345 0.008325774 0.010092144
000380 ca 05 b2 bb 73 20 d4 bc 45 0e d9 3c 53 6b c1 bc
       -0.005432819 -0.02589438 0.026496062 -0.023610746
000390 c2 f9 99 3d f6 a2 68 bd 6e 47 90 bb 04 dc 9d 3c
       0.07518341 -0.056796037 -0.0044030463 0.01926995
0003a0 86 fc 1e bc 8f 5a 11 bd a4 0d 1d 3b cc 78 1b bc
       -0.009703761 -0.035486754 0.002396443 -0.009489249
0003b0 f8 51 3a 3d 44 06 2a bd 90 62 92 3d e8 5e 82 bc
       0.045488328 -0.04150988 0.071477056 -0.015914395
0003c0 70 a9 9f bd 21 e6 7c 3c 5e 6b a2 3b 22 d0 77 bd
       -0.077959895 0.015435726 0.004956647 -0.060501225
0003d0 1e 62 19 3c 82 36 54 bc 17 5d 78 3c 22 8d 71 bc
       0.009361772 -0.012952449 0.015158913 -0.014743121
0003e0 f5 d9 49 bd ae f7 98 ba 26 28 41 3d fc 17 a0 3e
       -0.049280126 -0.0011670494 0.04715743 0.312683
0003f0 24 4d 2c be 72 b6 e6 bd e4 b5 85 3d a4 c7 8e 3d
       -0.16826302 -0.112652674 0.065288335 0.06971672

bias f4 [105]
000000 38 34 50 be 80 94 bb 3e bd 3d 26 bd 70 65 9e bb
       -0.2033242 0.36636734 -0.040586222 -0.0048338696
000010 dd 8e b9 3d 5e a1 ed be d6 b7 12 3c 80 b4 a6 3e
       0.09060452 -0.46412176 0.008954963 0.32559586
000020 94 e7 83 3f 37 0d e5 be ba fb c1 bc ef af 8b 3e
       1.0305047 -0.44736645 -0.023679603 0.27282664
000030 9b 98 1f 3e e9 c6 36 bf 67 d4 a5 3f 64 2d 32 3e
       0.15585558 -0.7139726 1.2955445 0.17400128
000040 ff 04 b6 3d a7 10 07 3f ff 62 8b 3e fa a1 5d be
       0.08887672 0.52759784 0.27223966 -0.2164382
000050 3b f8 44 bc 6b f0 e5 bd d4 b4 eb bd c4 21 0a 3f
       -0.012022073 -0.11227497 -0.115090996 0.5395777
000060 ae 31 eb be f3 41 8f bf 2f 6d 02 3f d0 56 9c 3f
       -0.4593634 -1.1192001 0.5094785 1.2213993
000070 ec 6f 60 3f 21 2d 51 3c 6f 80 ce be 8c ff 5e 3f
       0.8767078 0.012767107 -0.40332362 0.87108684
000080 ce 41 18 3d 21 e2 19 bd a9 19 04 bd 47 b8 81 bd
       0.03717213 -0.03756917 -0.032251034 -0.06333976
000090 f8 d1 3e 3f c1 e3 88 3e 23 fc bf bf f1 b3 96 be
       0.74539137 0.26736262 -1.4998821 -0.2943416
0000a0 3a 39 c2 be 35 33 ca bc 30 a5 ce bd ca 07 c1 be
       -0.37934285 -0.02468262 -0.10090101 -0.37701255
0000b0 fd 98 22 3e ed 88 8f bc 13 ad 00 3f 02 e8 24 3f
       0.15878673 -0.017521346 0.5026409 0.64416516
0000c0 92 97 5c be b0 1c fd ba e2 2a f9 bd b4 0c f5 3e
       -0.21542194 -0.0019310918 -0.12166382 0.47861254
0000d0 f6 a4 85 bf a7 93 62 be 7d 4c 8c 3f c0 6b d4 3e
       -1.0440967 -0.22126637 1.0960842 0.41488457
0000e0 d4 98 24 bf 07 63 02 3e f2 05 b3 3d a4 b8 96 3f
       -0.642957 0.12733088 0.08741368 1.1775098
0000f0 52 c0 7c 3c 77 9b 8b bf b7 25 a5 3e 8c cc 9d be
       0.015426712 -1.0906819 0.32255337 -0.3082012
000100 be 75 42 3f a3 a9 04 3e 29 45 94 3f 7b f6 d3 3d
       0.7596091 0.12955336 1.1583606 0.10349747
000110 af 12 37 3f 8f 23 18 bf dd 3a f2 bf 1d c3 cf 3e
       0.71512884 -0.5942926 -1.8924214 0.40578547
000120 f3 3f bd 3e 24 ea 41 bf 30 16 69 3e db fc cf bf
       0.36962852 -0.75747895 0.2276237 -1.624904
000130 8a 78 57 3e 6a 87 88 bf 6c b4 e9 3d 9c 7b 09 3d
       0.21042076 -1.0666325 0.11411366 0.03356515
000140 90 df 53 3f f3 af 18 c0 bc da fe 3d ea 47 38 bf
       0.82763004 -2.385739 0.12444064 -0.7198473
000150 1e 76 c9 3e 4f cf d7 3d 98 8f 83 bf 47 8c ac 3f
       0.3934793 0.10537588 -1.0278196 1.3480309
000160 35 11 3e 3f 10 11 e9 3f 43 06 97 bf 5a 2d c0 bf
       0.74245006 1.8208332 -1.1798786 -1.501384
000170 5b 7a b9 3d 3e e9 a5 bf 35 33 3e 40 eb 1a 17 bf
       0.090565406 -1.2961805 2.9718754 -0.5902545
000180 58 aa 35 3e 4e 39 7e bf 34 ae f6 3e 33 24 39 bf
       0.17740762 -0.9930619 0.4817978 -0.7232086
000190 64 a6 19 c0 1a cf 89 bf 2e 9e ad be 6c 52 32 3e
       -2.4007807 -1.0766327 -0.33909744 0.17414254
0001a0 02 59 4f bf
       -0.8099519

weight f4 [30, 105]
000000 bf 49 64 3f c6 64 12 3e d0 da 82 bd 1e 20 af be
       0.8917503 0.14296255 -0.063893914 -0.3420419
000010 48 a2 f1 3d db a8 ac be 0d 87 8f 3d 5b 45 01 3e
       0.11798531 -0.33722576 0.07008181 0.12624113
000020 c3 75 f5 bc ff 92 c3 bd db 24 41 bd 23 fc 97 3e
       -0.02996338 -0.09549522 -0.04715429 0.29684553
000030 98 03 c0 bd fa 6d 90 3d b5 a3 07 3d 41 9b 24 3d
       -0.093756855 0.07052226 0.033115108 0.040187124
000040 9d a7 d9 3d 44 be 24 bc 56 d1 b7 bd 4f e1 db bd
       0.10627673 -0.0100551285 -0.089754745 -0.107363336
000050 55 ac 2b 3e af 9a 8e bd 54 a6 32 3d 3a 09 1d bd
       0.16764958 -0.06963097 0.043615654 -0.038338877
000060 24 e8 bb bd 92 da fe 3d 39 8a 80 bd 2e 8e 65 bd
       -0.09175137 0.12444033 -0.06276364 -0.056043796
000070 0d 31 00 be f6 84 3b 3e 96 f3 33 3e c3 12 10 bd
       -0.12518711 0.1831244 0.1757339 -0.035174143
000080 82 e7 39 be 25 14 cb bd b9 01 6c 3e 73 ee b8 3e
       -0.1815472 -0.09915952 0.23047532 0.36119422
000090 ee a2 79 be 35 00 8f 3e f9 3e aa 3c b1 ce 8f 3e
       -0.24378559 0.27929845 0.02078198 0.2808738
0000a0 31 fd 6d 3d 5d f2 c4 bd a2 bc 57 3e db 70 32 3d
       0.05810279 -0.096165396 0.21068051 0.04356466
0000b0 7d a9 8d 3e a3 8d 53 3e ed eb 03 be 2d 41 10 be
       0.27668372 0.20659499 -0.12882967 -0.14087363
0000c0 bd 3d 5a bc 1e 69 85 be fb 99 85 be 5f 68 a2 3d
       -0.013320384 -0.2605676 -0.2609404 0.079300635
0000d0 bc 7b 30 3e 0d 35 80 3c ee 7f a5 bd 32 9f 75 be
       0.17234701 0.015650297 -0.08081041 -0.2398651
0000e0 23 8a 2c bf 76 55 1e 3e 27 47 e3 3c 28 6a 8e bd
       -0.6739828 0.15462288 0.027743889 -0.069538414
0000f0 e2 6d 47 3c 48 21 59 3e 17 93 22 3e 55 6c 09 bd
       0.012172194 0.21204102 0.15876423 -0.03355058
000100 59 2b a0 3d f5 71 88 3d dc dd ef bd 5d 5a 5e 3e
       0.07820768 0.066623606 -0.11712238 0.21714158
000110 1f fa fc 3c 80 39 49 3c b0 bd a5 bd a9 f6 f4 bd
       0.030880986 0.0122817755 -0.08092821 -0.11961109
000120 db 3b a9 bc 96 ab b9 3c e9 c3 25 3d 8f 10 f8 bd
       -0.020658424 0.022664826 0.040470038 -0.12112533
000130 fe f4 30 be f0 ab 9d bd b7 1b 90 3d 0d 4e 7c 3d
       -0.17280957 -0.0769881 0.07036536 0.061597873
000140 8f 84 f4 bd dd 6a e3 bd 38 83 d1 3c 49 b4 1a 3e
       -0.11939346 -0.11104367 0.025575265 0.15107836
000150 f4 c2 f3 bd 49 21 41 bd 40 13 bf 3d e4 4f 98 3d
       -0.11902419 -0.047150884 0.093298435 0.07437113
000160 f0 e9 fd 3d 5a a0 3d 3e 43 3f d9 bd 7d 29 e5 bc
       0.12398136 0.185182 -0.10607769 -0.027973885
000170 8a 85 0e be a2 e7 93 3d 32 7c 42 bd 15 10 af 3d
       -0.13918129 0.07221915 -0.047481723 0.08547989
000180 d9 81 97 be c0 37 2c be be 86 ba bd 93 5e 63 bd
       -0.29591253 -0.16818142 -0.09107731 -0.055510115
000190 93 39 97 bd a8 ab 1a bc 43 75 60 3d 08 0c 50 3e
       -0.07384028 -0.00944034 0.05479933 0.2031709
0001a0 5f 34 36 bd 0c 78 78 be 0c 02 b1 be 15 0d dd 3d
       -0.04448354 -0.24264544 -0.34571874 0.10793511
0001b0 18 be 43 be a9 3a 61 be 73 e1 4a 3e 78 09 93 3e
       -0.19115484 -0.21995033 0.19812565 0.28718162
0001c0 6d 7f fb be 91 19 f8 3d 2c 37 b6 3d b3 ed 81 3e
       -0.49120656 0.121142514 0.08897242 0.25376663
0001d0 30 bd 8c 3e 6e 4c 43 bd c7 69 cf 3c b6 36 41 3c
       0.2748809 -0.04768031 0.025318993 0.011792829
0001e0 b8 d2 40 be 3c 18 ee bc 2a 00 e0 3e 63 b4 fd bc
       -0.18830383 -0.02906429 0.43750125 -0.030969804
0001f0 d9 0f f9 3e 83 88 75 bd fd c0 01 3e 28 b0 46 3e
       0.48644903 -0.05994464 0.12671275 0.19403136
000200 a4 59 b2 3e d9 55 40 be 6c a7 9b be ef 80 40 be
       0.34834015 -0.18782748 -0.3040117 -0.18799184
000210 18 e4 d2 3c 5b 5c d4 be 0f c9 c0 bc cc 9a 78 3e
       0.02574353 -0.41476712 -0.023533372 0.242778
000220 49 fe c6 3b fb c4 a5 be 83 af 59 3e f9 86 14 3e
       0.0060727936 -0.32376847 0.21258359 0.14504613
000230 83 cd c6 3e 32 bc 12 3e 01 e2 3c be d5 3e 7e 3d
       0.38828668 0.14329603 -0.18445589 0.06207164
000240 cc fd 66 3e 58 4e af bd c8 34 fd bd cc 84 ec bd
       0.22557753 -0.08559865 -0.12363583 -0.115487665
000250 3b bf 76 3e 11 4e 91 bd 03 fc a1 bc b3 50 27 bf
       0.24096386 -0.07094968 -0.019773489 -0.6535751
000260 b2 05 7d 3d fe 02 f5 3e 7a f6 2a bd 15 a4 b0 3e
       0.06177301 0.47853845 -0.041738965 0.34500185
000270 10 1f 24 bd 4f 5c 4b 3d 3d 93 49 3e 2e d5 ea 3d
       -0.040068686 0.04964858 0.19685073 0.11466442
000280 01 71 71 3e 62 5c ca bd b5 e8 05 be b2 d8 43 be
       0.23578264 -0.09880902 -0.13077052 -0.19125631
000290 9d f0 f3 bc 74 0e 1c bf 73 24 0f 3e 1f f7 52 bd
       -0.02977782 -0.60959554 0.13978748 -0.051505204
0002a0 44 0c ef 3d 82 5a 61 3c cd d2 50 be 6a ce e3 3c
       0.11672261 0.013754489 -0.20392914 0.027808387
0002b0 cd da ca bd d4 f7 a2 3c dd 2a 95 3d 67 31 9a 3d
       -0.09905014 0.019893564 0.07283566 0.07528954
0002c0 40 71 7e be 0b 4d 56 3e 48 23 19 3e 92 13 b5 bd
       -0.24847889 0.20927827 0.14954865 -0.08841623
0002d0 71 be 1c 3e 4e 8d 82 3d 15 57 41 be 20 a6 a5 3d
       0.15307023 0.06374608 -0.18880875 0.080883265
0002e0 ff 98 6b 3d 30 71 9e 3e da dc 7c 3d 8a aa da 3d
       0.057518955 0.3094573 0.061734058 0.10677059
0002f0 cd ad 15 bd 9b 0e 41 bc 19 fc 88 3c 75 c9 e7 3c
       -0.036542702 -0.011783267 0.016721772 0.028294304
000300 bf 2e 5c 3e ee 1c 49 3e dc 94 58 be 43 e5 00 3e
       0.21502207 0.19639942 -0.21150535 0.12587456
000310 0f bc 75 3d 67 2d 06 3e 0b 33 ba bd 58 bb 36 bb
       0.0599938 0.13103257 -0.09091767 -0.0027882662
000320 67 3f 08 be a7 87 ab 3d 9e 7d 33 bd 70 89 fc 3d
       -0.13305436 0.08375483 -0.04382097 0.123309016
000330 2f 58 e3 3d 3c 98 d4 3d e9 1f f5 3d 92 09 80 3d
       0.11100804 0.10380599 0.11968977 0.062518254
000340 c2 86 ae 3d 57 43 cd 3d a4 ca 09 bf 80 d6 53 be
       0.08521797 0.1002261 -0.5382483 -0.20687294
000350 50 d5 4a bd 62 ef c8 be 3e e1 57 be 2b 1c cf 3e
       -0.049519837 -0.39245135 -0.21082017 0.40451178
000360 de ed 12 3e 12 7e 0a 3d 9a 29 60 3c c1 ee 3e be
       0.14348552 0.033811636 0.013681794 -0.18645765
000370 a0 8d ce bd 24 12 bd 3e fa 44 f1 be 31 5a 2d 3b
       -0.100856066 0.36927903 -0.47122937 0.0026451463
000380 70 db 23 3e b2 99 94 be 3d f2 0b 3c 3c 72 31 be
       0.16001678 -0.2902351 0.008541641 -0.17328733
000390 30 67 60 3b e9 f1 80 be 1a ed 02 be a4 45 08 3e
       0.0034241192 -0.25184563 -0.1278576 0.13307816
0003a0 be 92 13 3e 8d 58 ab be 8a ac 0f 3c 07 89 95 3e
       0.14411446 -0.33465996 0.008769164 0.29206106
0003b0 e6 eb d1 3a c6 e8 36 3e 9e f1 b1 be b3 d6 88 3d
       0.0016015738 0.17862234 -0.34754652 0.066815756
0003c0 97 f7 d7 3c 80 4c d2 bb 61 8f b5 bd 45 dd 62 3e
       0.026363177 -0.006417811 -0.08865238 0.2215472
0003d0 54 22 26 be 01 11 40 3e f4 16 4b 3e b1 b9 9b be
       -0.16224033 0.18756486 0.19832975 -0.3041511
0003e0 80 8f 5e 3d 32 d9 39 bb c1 31 ec bd b0 46 1b 3e
       0.05433607 -0.0028358218 -0.11532927 0.15163684
0003f0 3b 42 bb 3c 7d 74 eb bd a9 3b de 3c a7 cb 89 bd
       0.02285873 -0.11496828 0.027128058 -0.06728297

bias f4 [30]
000000 28 68 dc bd ed 90 99 be 38 39 39 be 60 bb 44 be
       -0.10762054 -0.29993382 -0.18088233 -0.19212103
000010 5b ae ec 3c 40 b9 59 be 6d cb 68 be 86 a8 ab bd
       0.028891733 -0.21262074 -0.22733851 -0.08381753
000020 80 54 8e 3e b0 4e c4 bc 3f 2f c9 bd 17 b2 e6 bb
       0.27798843 -0.023963302 -0.098234646 -0.007040273
000030 ae 64 ad bc 4a fb 06 3e 20 1f 97 3e 8f b4 4e be
       -0.021166172 0.13181797 0.29515934 -0.20186065
000040 a0 28 9d 3d 91 a1 0d bf 07 73 19 3c 52 66 cc bc
       0.07673764 -0.55324656 0.009365804 -0.024951134
000050 9a ea cc bd e3 87 c1 bd b4 26 c1 bd 30 8e fb 3d
       -0.10005684 -0.094497465 -0.0943121 0.122829795
000060 7b ff c7 bd 67 76 ed 3d 25 6b 0a be a5 0f 1f bd
       -0.09765526 0.11594849 -0.13517435 -0.03883328
000070 e9 24 f8 3d a0 f8 3e be
       0.12116415 -0.1864953
